…
I0523 23:42:22.910451  5113 net.cpp:294] The NetState phase (0) differed from the phase (1) specified by a rule in layer accuracy
I0523 23:42:22.910643  5113 net.cpp:51] Initializing net from parameters: 
name: "CIFAR10_full"
state {
  phase: TRAIN
  level: 0
  stage: ""
}
layer {
  name: "cifar"
  type: "Data"
  top: "data"
  top: "label"
  include {
    phase: TRAIN
  }
  transform_param {
    mean_file: "/home/chen/dataset/cifar10/mean.binaryproto"
  }
  data_param {
    source: "/home/chen/dataset/cifar10/cifar10_train_lmdb"
    batch_size: 100
    backend: LMDB
  }
}
layer {
  name: "conv1"
  type: "Convolution"
  bottom: "data"
  top: "conv1"
  param {
    lr_mult: 1
  }
  param {
    lr_mult: 2
  }
  convolution_param {
    num_output: 32
    pad: 2
    kernel_size: 5
    stride: 1
    weight_filler {
      type: "gaussian"
      std: 0.0001
    }
    bias_filler {
      type: "constant"
    }
  }
}
layer {
  name: "pool1"
  type: "Pooling"
  bottom: "conv1"
  top: "pool1"
  pooling_param {
    pool: MAX
    kernel_size: 3
    stride: 2
  }
}
layer {
  name: "relu1"
  type: "ReLU"
  bottom: "pool1"
  top: "pool1"
}
layer {
  name: "norm1"
  type: "LRN"
  bottom: "pool1"
  top: "norm1"
  lrn_param {
    local_size: 3
    alpha: 5e-05
    beta: 0.75
    norm_region: WITHIN_CHANNEL
  }
}
layer {
  name: "conv2"
  type: "Convolution"
  bottom: "norm1"
  top: "conv2"
  param {
    lr_mult: 1
  }
  param {
    lr_mult: 2
  }
  convolution_param {
    num_output: 32
    pad: 2
    kernel_size: 5
    stride: 1
    weight_filler {
      type: "gaussian"
      std: 0.01
    }
    bias_filler {
      type: "constant"
    }
  }
}
layer {
  name: "relu2"
  type: "ReLU"
  bottom: "conv2"
  top: "conv2"
}
layer {
  name: "pool2"
  type: "Pooling"
  bottom: "conv2"
  top: "pool2"
  pooling_param {
    pool: AVE
    kernel_size: 3
    stride: 2
  }
}
layer {
  name: "norm2"
  type: "LRN"
  bottom: "pool2"
  top: "norm2"
  lrn_param {
    local_size: 3
    alpha: 5e-05
    beta: 0.75
    norm_region: WITHIN_CHANNEL
  }
}
layer {
  name: "conv3"
  type: "Convolution"
  bottom: "norm2"
  top: "conv3"
  convolution_param {
    num_output: 64
    pad: 2
    kernel_size: 5
    stride: 1
    weight_filler {
      type: "gaussian"
      std: 0.01
    }
    bias_filler {
      type: "constant"
    }
  }
}
layer {
  name: "relu3"
  type: "ReLU"
  bottom: "conv3"
  top: "conv3"
}
layer {
  name: "pool3"
  type: "Pooling"
  bottom: "conv3"
  top: "pool3"
  pooling_param {
    pool: AVE
    kernel_size: 3
    stride: 2
  }
}
layer {
  name: "ip1"
  type: "InnerProduct"
  bottom: "pool3"
  top: "ip1"
  param {
    lr_mult: 1
    decay_mult: 250
  }
  param {
    lr_mult: 2
    decay_mult: 0
  }
  inner_product_param {
    num_output: 10
    weight_filler {
      type: "gaussian"
      std: 0.01
    }
    bias_filler {
      type: "constant"
    }
  }
}
layer {
  name: "loss"
  type: "SoftmaxWithLoss"
  bottom: "ip1"
  bottom: "label"
  top: "loss"
}
I0523 23:42:22.910840  5113 layer_factory.hpp:77] Creating layer cifar
I0523 23:42:22.910993  5113 db_lmdb.cpp:35] Opened lmdb /home/chen/dataset/cifar10/cifar10_train_lmdb
I0523 23:42:22.911053  5113 net.cpp:84] Creating Layer cifar
I0523 23:42:22.911101  5113 net.cpp:380] cifar -> data
I0523 23:42:22.911154  5113 net.cpp:380] cifar -> label
I0523 23:42:22.911196  5113 data_transformer.cpp:25] Loading mean file from: /home/chen/dataset/cifar10/mean.binaryproto
I0523 23:42:22.913583  5113 data_layer.cpp:45] output data size: 100,3,32,32
I0523 23:42:22.923068  5113 net.cpp:122] Setting up cifar
I0523 23:42:22.923163  5113 net.cpp:129] Top shape: 100 3 32 32 (307200)
I0523 23:42:22.923185  5113 net.cpp:129] Top shape: 100 (100)
I0523 23:42:22.923192  5113 net.cpp:137] Memory required for data: 1229200
I0523 23:42:22.923208  5113 layer_factory.hpp:77] Creating layer conv1
I0523 23:42:22.923249  5113 net.cpp:84] Creating Layer conv1
I0523 23:42:22.923261  5113 net.cpp:406] conv1 <- data
I0523 23:42:22.923285  5113 net.cpp:380] conv1 -> conv1
I0523 23:42:23.712153  5113 net.cpp:122] Setting up conv1
I0523 23:42:23.712199  5113 net.cpp:129] Top shape: 100 32 32 32 (3276800)
I0523 23:42:23.712208  5113 net.cpp:137] Memory required for data: 14336400
I0523 23:42:23.712240  5113 layer_factory.hpp:77] Creating layer pool1
I0523 23:42:23.712263  5113 net.cpp:84] Creating Layer pool1
I0523 23:42:23.712273  5113 net.cpp:406] pool1 <- conv1
I0523 23:42:23.712285  5113 net.cpp:380] pool1 -> pool1
I0523 23:42:23.712368  5113 net.cpp:122] Setting up pool1
I0523 23:42:23.712383  5113 net.cpp:129] Top shape: 100 32 16 16 (819200)
I0523 23:42:23.712390  5113 net.cpp:137] Memory required for data: 17613200
I0523 23:42:23.712397  5113 layer_factory.hpp:77] Creating layer relu1
I0523 23:42:23.712407  5113 net.cpp:84] Creating Layer relu1
I0523 23:42:23.712414  5113 net.cpp:406] relu1 <- pool1
I0523 23:42:23.712426  5113 net.cpp:367] relu1 -> pool1 (in-place)
I0523 23:42:23.713122  5113 net.cpp:122] Setting up relu1
I0523 23:42:23.713145  5113 net.cpp:129] Top shape: 100 32 16 16 (819200)
I0523 23:42:23.713152  5113 net.cpp:137] Memory required for data: 20890000
I0523 23:42:23.713160  5113 layer_factory.hpp:77] Creating layer norm1
I0523 23:42:23.713178  5113 net.cpp:84] Creating Layer norm1
I0523 23:42:23.713191  5113 net.cpp:406] norm1 <- pool1
I0523 23:42:23.713201  5113 net.cpp:380] norm1 -> norm1
I0523 23:42:23.714802  5113 net.cpp:122] Setting up norm1
I0523 23:42:23.714829  5113 net.cpp:129] Top shape: 100 32 16 16 (819200)
I0523 23:42:23.714838  5113 net.cpp:137] Memory required for data: 24166800
I0523 23:42:23.714845  5113 layer_factory.hpp:77] Creating layer conv2
I0523 23:42:23.714870  5113 net.cpp:84] Creating Layer conv2
I0523 23:42:23.714879  5113 net.cpp:406] conv2 <- norm1
I0523 23:42:23.714892  5113 net.cpp:380] conv2 -> conv2
I0523 23:42:23.719383  5113 net.cpp:122] Setting up conv2
I0523 23:42:23.719408  5113 net.cpp:129] Top shape: 100 32 16 16 (819200)
I0523 23:42:23.719418  5113 net.cpp:137] Memory required for data: 27443600
I0523 23:42:23.719439  5113 layer_factory.hpp:77] Creating layer relu2
I0523 23:42:23.719454  5113 net.cpp:84] Creating Layer relu2
I0523 23:42:23.719461  5113 net.cpp:406] relu2 <- conv2
I0523 23:42:23.719471  5113 net.cpp:367] relu2 -> conv2 (in-place)
I0523 23:42:23.720446  5113 net.cpp:122] Setting up relu2
I0523 23:42:23.720468  5113 net.cpp:129] Top shape: 100 32 16 16 (819200)
I0523 23:42:23.720475  5113 net.cpp:137] Memory required for data: 30720400
I0523 23:42:23.720482  5113 layer_factory.hpp:77] Creating layer pool2
I0523 23:42:23.720497  5113 net.cpp:84] Creating Layer pool2
I0523 23:42:23.720505  5113 net.cpp:406] pool2 <- conv2
I0523 23:42:23.720516  5113 net.cpp:380] pool2 -> pool2
I0523 23:42:23.721159  5113 net.cpp:122] Setting up pool2
I0523 23:42:23.721180  5113 net.cpp:129] Top shape: 100 32 8 8 (204800)
I0523 23:42:23.721187  5113 net.cpp:137] Memory required for data: 31539600
I0523 23:42:23.721195  5113 layer_factory.hpp:77] Creating layer norm2
I0523 23:42:23.721212  5113 net.cpp:84] Creating Layer norm2
I0523 23:42:23.721221  5113 net.cpp:406] norm2 <- pool2
I0523 23:42:23.721232  5113 net.cpp:380] norm2 -> norm2
I0523 23:42:23.721976  5113 net.cpp:122] Setting up norm2
I0523 23:42:23.721995  5113 net.cpp:129] Top shape: 100 32 8 8 (204800)
I0523 23:42:23.722002  5113 net.cpp:137] Memory required for data: 32358800
I0523 23:42:23.722010  5113 layer_factory.hpp:77] Creating layer conv3
I0523 23:42:23.722054  5113 net.cpp:84] Creating Layer conv3
I0523 23:42:23.722064  5113 net.cpp:406] conv3 <- norm2
I0523 23:42:23.722079  5113 net.cpp:380] conv3 -> conv3
I0523 23:42:23.725446  5113 net.cpp:122] Setting up conv3
I0523 23:42:23.725471  5113 net.cpp:129] Top shape: 100 64 8 8 (409600)
I0523 23:42:23.725478  5113 net.cpp:137] Memory required for data: 33997200
I0523 23:42:23.725497  5113 layer_factory.hpp:77] Creating layer relu3
I0523 23:42:23.725508  5113 net.cpp:84] Creating Layer relu3
I0523 23:42:23.725525  5113 net.cpp:406] relu3 <- conv3
I0523 23:42:23.725538  5113 net.cpp:367] relu3 -> conv3 (in-place)
I0523 23:42:23.726523  5113 net.cpp:122] Setting up relu3
I0523 23:42:23.726546  5113 net.cpp:129] Top shape: 100 64 8 8 (409600)
I0523 23:42:23.726552  5113 net.cpp:137] Memory required for data: 35635600
I0523 23:42:23.726560  5113 layer_factory.hpp:77] Creating layer pool3
I0523 23:42:23.726573  5113 net.cpp:84] Creating Layer pool3
I0523 23:42:23.726583  5113 net.cpp:406] pool3 <- conv3
I0523 23:42:23.726593  5113 net.cpp:380] pool3 -> pool3
I0523 23:42:23.727255  5113 net.cpp:122] Setting up pool3
I0523 23:42:23.727278  5113 net.cpp:129] Top shape: 100 64 4 4 (102400)
I0523 23:42:23.727286  5113 net.cpp:137] Memory required for data: 36045200
I0523 23:42:23.727294  5113 layer_factory.hpp:77] Creating layer ip1
I0523 23:42:23.727308  5113 net.cpp:84] Creating Layer ip1
I0523 23:42:23.727315  5113 net.cpp:406] ip1 <- pool3
I0523 23:42:23.727329  5113 net.cpp:380] ip1 -> ip1
I0523 23:42:23.728744  5113 net.cpp:122] Setting up ip1
I0523 23:42:23.728775  5113 net.cpp:129] Top shape: 100 10 (1000)
I0523 23:42:23.728782  5113 net.cpp:137] Memory required for data: 36049200
I0523 23:42:23.728796  5113 layer_factory.hpp:77] Creating layer loss
I0523 23:42:23.728808  5113 net.cpp:84] Creating Layer loss
I0523 23:42:23.728816  5113 net.cpp:406] loss <- ip1
I0523 23:42:23.728824  5113 net.cpp:406] loss <- label
I0523 23:42:23.728837  5113 net.cpp:380] loss -> loss
I0523 23:42:23.728860  5113 layer_factory.hpp:77] Creating layer loss
…
I0523 23:42:23.730104  5113 solver.cpp:190] Creating test net (#0) specified by net file: cifar10_full_train_test.prototxt
I0523 23:42:23.730150  5113 net.cpp:294] The NetState phase (1) differed from the phase (0) specified by a rule in layer cifar
I0523 23:42:23.730324  5113 net.cpp:51] Initializing net from parameters: 
name: "CIFAR10_full"
state {
  phase: TEST
}
layer {
  name: "cifar"
  type: "Data"
  top: "data"
  top: "label"
  include {
    phase: TEST
  }
  transform_param {
    mean_file: "/home/chen/dataset/cifar10/mean.binaryproto"
  }
  data_param {
    source: "/home/chen/dataset/cifar10/cifar10_test_lmdb"
    batch_size: 100
    backend: LMDB
  }
}
layer {
  name: "conv1"
  type: "Convolution"
  bottom: "data"
  top: "conv1"
  param {
    lr_mult: 1
  }
  param {
    lr_mult: 2
  }
  convolution_param {
    num_output: 32
    pad: 2
    kernel_size: 5
    stride: 1
    weight_filler {
      type: "gaussian"
      std: 0.0001
    }
    bias_filler {
      type: "constant"
    }
  }
}
layer {
  name: "pool1"
  type: "Pooling"
  bottom: "conv1"
  top: "pool1"
  pooling_param {
    pool: MAX
    kernel_size: 3
    stride: 2
  }
}
layer {
  name: "relu1"
  type: "ReLU"
  bottom: "pool1"
  top: "pool1"
}
layer {
  name: "norm1"
  type: "LRN"
  bottom: "pool1"
  top: "norm1"
  lrn_param {
    local_size: 3
    alpha: 5e-05
    beta: 0.75
    norm_region: WITHIN_CHANNEL
  }
}
layer {
  name: "conv2"
  type: "Convolution"
  bottom: "norm1"
  top: "conv2"
  param {
    lr_mult: 1
  }
  param {
    lr_mult: 2
  }
  convolution_param {
    num_output: 32
    pad: 2
    kernel_size: 5
    stride: 1
    weight_filler {
      type: "gaussian"
      std: 0.01
    }
    bias_filler {
      type: "constant"
    }
  }
}
layer {
  name: "relu2"
  type: "ReLU"
  bottom: "conv2"
  top: "conv2"
}
layer {
  name: "pool2"
  type: "Pooling"
  bottom: "conv2"
  top: "pool2"
  pooling_param {
    pool: AVE
    kernel_size: 3
    stride: 2
  }
}
layer {
  name: "norm2"
  type: "LRN"
  bottom: "pool2"
  top: "norm2"
  lrn_param {
    local_size: 3
    alpha: 5e-05
    beta: 0.75
    norm_region: WITHIN_CHANNEL
  }
}
layer {
  name: "conv3"
  type: "Convolution"
  bottom: "norm2"
  top: "conv3"
  convolution_param {
    num_output: 64
    pad: 2
    kernel_size: 5
    stride: 1
    weight_filler {
      type: "gaussian"
      std: 0.01
    }
    bias_filler {
      type: "constant"
    }
  }
}
layer {
  name: "relu3"
  type: "ReLU"
  bottom: "conv3"
  top: "conv3"
}
layer {
  name: "pool3"
  type: "Pooling"
  bottom: "conv3"
  top: "pool3"
  pooling_param {
    pool: AVE
    kernel_size: 3
    stride: 2
  }
}
layer {
  name: "ip1"
  type: "InnerProduct"
  bottom: "pool3"
  top: "ip1"
  param {
    lr_mult: 1
    decay_mult: 250
  }
  param {
    lr_mult: 2
    decay_mult: 0
  }
  inner_product_param {
    num_output: 10
    weight_filler {
      type: "gaussian"
      std: 0.01
    }
    bias_filler {
      type: "constant"
    }
  }
}
layer {
  name: "accuracy"
  type: "Accuracy"
  bottom: "ip1"
  bottom: "label"
  top: "accuracy"
  include {
    phase: TEST
  }
}
layer {
  name: "loss"
  type: "SoftmaxWithLoss"
  bottom: "ip1"
  bottom: "label"
  top: "loss"
}
I0523 23:42:23.730468  5113 layer_factory.hpp:77] Creating layer cifar
I0523 23:42:23.730553  5113 db_lmdb.cpp:35] Opened lmdb /home/chen/dataset/cifar10/cifar10_test_lmdb
I0523 23:42:23.730577  5113 net.cpp:84] Creating Layer cifar
I0523 23:42:23.730592  5113 net.cpp:380] cifar -> data
I0523 23:42:23.730607  5113 net.cpp:380] cifar -> label
I0523 23:42:23.730623  5113 data_transformer.cpp:25] Loading mean file from: /home/chen/dataset/cifar10/mean.binaryproto
I0523 23:42:23.730847  5113 data_layer.cpp:45] output data size: 100,3,32,32
I0523 23:42:23.740885  5113 net.cpp:122] Setting up cifar
I0523 23:42:23.740942  5113 net.cpp:129] Top shape: 100 3 32 32 (307200)
I0523 23:42:23.740953  5113 net.cpp:129] Top shape: 100 (100)
I0523 23:42:23.740960  5113 net.cpp:137] Memory required for data: 1229200
I0523 23:42:23.740972  5113 layer_factory.hpp:77] Creating layer label_cifar_1_split
I0523 23:42:23.740991  5113 net.cpp:84] Creating Layer label_cifar_1_split
I0523 23:42:23.741000  5113 net.cpp:406] label_cifar_1_split <- label
I0523 23:42:23.741015  5113 net.cpp:380] label_cifar_1_split -> label_cifar_1_split_0
I0523 23:42:23.741034  5113 net.cpp:380] label_cifar_1_split -> label_cifar_1_split_1
I0523 23:42:23.741215  5113 net.cpp:122] Setting up label_cifar_1_split
I0523 23:42:23.741242  5113 net.cpp:129] Top shape: 100 (100)
I0523 23:42:23.741253  5113 net.cpp:129] Top shape: 100 (100)
I0523 23:42:23.741259  5113 net.cpp:137] Memory required for data: 1230000
I0523 23:42:23.741292  5113 layer_factory.hpp:77] Creating layer conv1
I0523 23:42:23.741320  5113 net.cpp:84] Creating Layer conv1
I0523 23:42:23.741333  5113 net.cpp:406] conv1 <- data
I0523 23:42:23.741349  5113 net.cpp:380] conv1 -> conv1
I0523 23:42:23.745182  5113 net.cpp:122] Setting up conv1
I0523 23:42:23.745209  5113 net.cpp:129] Top shape: 100 32 32 32 (3276800)
I0523 23:42:23.745218  5113 net.cpp:137] Memory required for data: 14337200
I0523 23:42:23.745239  5113 layer_factory.hpp:77] Creating layer pool1
I0523 23:42:23.745254  5113 net.cpp:84] Creating Layer pool1
I0523 23:42:23.745265  5113 net.cpp:406] pool1 <- conv1
I0523 23:42:23.745275  5113 net.cpp:380] pool1 -> pool1
I0523 23:42:23.745344  5113 net.cpp:122] Setting up pool1
I0523 23:42:23.745360  5113 net.cpp:129] Top shape: 100 32 16 16 (819200)
I0523 23:42:23.745368  5113 net.cpp:137] Memory required for data: 17614000
I0523 23:42:23.745374  5113 layer_factory.hpp:77] Creating layer relu1
I0523 23:42:23.745388  5113 net.cpp:84] Creating Layer relu1
I0523 23:42:23.745396  5113 net.cpp:406] relu1 <- pool1
I0523 23:42:23.745406  5113 net.cpp:367] relu1 -> pool1 (in-place)
I0523 23:42:23.746851  5113 net.cpp:122] Setting up relu1
I0523 23:42:23.746881  5113 net.cpp:129] Top shape: 100 32 16 16 (819200)
I0523 23:42:23.746893  5113 net.cpp:137] Memory required for data: 20890800
I0523 23:42:23.746901  5113 layer_factory.hpp:77] Creating layer norm1
I0523 23:42:23.746917  5113 net.cpp:84] Creating Layer norm1
I0523 23:42:23.746923  5113 net.cpp:406] norm1 <- pool1
I0523 23:42:23.746939  5113 net.cpp:380] norm1 -> norm1
I0523 23:42:23.748997  5113 net.cpp:122] Setting up norm1
I0523 23:42:23.749022  5113 net.cpp:129] Top shape: 100 32 16 16 (819200)
I0523 23:42:23.749029  5113 net.cpp:137] Memory required for data: 24167600
I0523 23:42:23.749037  5113 layer_factory.hpp:77] Creating layer conv2
I0523 23:42:23.749060  5113 net.cpp:84] Creating Layer conv2
I0523 23:42:23.749069  5113 net.cpp:406] conv2 <- norm1
I0523 23:42:23.749081  5113 net.cpp:380] conv2 -> conv2
I0523 23:42:23.753847  5113 net.cpp:122] Setting up conv2
I0523 23:42:23.753877  5113 net.cpp:129] Top shape: 100 32 16 16 (819200)
I0523 23:42:23.753891  5113 net.cpp:137] Memory required for data: 27444400
I0523 23:42:23.753911  5113 layer_factory.hpp:77] Creating layer relu2
I0523 23:42:23.753924  5113 net.cpp:84] Creating Layer relu2
I0523 23:42:23.753940  5113 net.cpp:406] relu2 <- conv2
I0523 23:42:23.753954  5113 net.cpp:367] relu2 -> conv2 (in-place)
I0523 23:42:23.754614  5113 net.cpp:122] Setting up relu2
I0523 23:42:23.754633  5113 net.cpp:129] Top shape: 100 32 16 16 (819200)
I0523 23:42:23.754642  5113 net.cpp:137] Memory required for data: 30721200
I0523 23:42:23.754648  5113 layer_factory.hpp:77] Creating layer pool2
I0523 23:42:23.754664  5113 net.cpp:84] Creating Layer pool2
I0523 23:42:23.754673  5113 net.cpp:406] pool2 <- conv2
I0523 23:42:23.754685  5113 net.cpp:380] pool2 -> pool2
I0523 23:42:23.755357  5113 net.cpp:122] Setting up pool2
I0523 23:42:23.755378  5113 net.cpp:129] Top shape: 100 32 8 8 (204800)
I0523 23:42:23.755385  5113 net.cpp:137] Memory required for data: 31540400
I0523 23:42:23.755393  5113 layer_factory.hpp:77] Creating layer norm2
I0523 23:42:23.755409  5113 net.cpp:84] Creating Layer norm2
I0523 23:42:23.755416  5113 net.cpp:406] norm2 <- pool2
I0523 23:42:23.755426  5113 net.cpp:380] norm2 -> norm2
I0523 23:42:23.756616  5113 net.cpp:122] Setting up norm2
I0523 23:42:23.756639  5113 net.cpp:129] Top shape: 100 32 8 8 (204800)
I0523 23:42:23.756647  5113 net.cpp:137] Memory required for data: 32359600
I0523 23:42:23.756654  5113 layer_factory.hpp:77] Creating layer conv3
I0523 23:42:23.756675  5113 net.cpp:84] Creating Layer conv3
I0523 23:42:23.756682  5113 net.cpp:406] conv3 <- norm2
I0523 23:42:23.756695  5113 net.cpp:380] conv3 -> conv3
I0523 23:42:23.760133  5113 net.cpp:122] Setting up conv3
I0523 23:42:23.760159  5113 net.cpp:129] Top shape: 100 64 8 8 (409600)
I0523 23:42:23.760166  5113 net.cpp:137] Memory required for data: 33998000
I0523 23:42:23.760210  5113 layer_factory.hpp:77] Creating layer relu3
I0523 23:42:23.760222  5113 net.cpp:84] Creating Layer relu3
I0523 23:42:23.760231  5113 net.cpp:406] relu3 <- conv3
I0523 23:42:23.760243  5113 net.cpp:367] relu3 -> conv3 (in-place)
I0523 23:42:23.760856  5113 net.cpp:122] Setting up relu3
I0523 23:42:23.760876  5113 net.cpp:129] Top shape: 100 64 8 8 (409600)
I0523 23:42:23.760884  5113 net.cpp:137] Memory required for data: 35636400
I0523 23:42:23.760890  5113 layer_factory.hpp:77] Creating layer pool3
I0523 23:42:23.760902  5113 net.cpp:84] Creating Layer pool3
I0523 23:42:23.760910  5113 net.cpp:406] pool3 <- conv3
I0523 23:42:23.760922  5113 net.cpp:380] pool3 -> pool3
I0523 23:42:23.761571  5113 net.cpp:122] Setting up pool3
I0523 23:42:23.761591  5113 net.cpp:129] Top shape: 100 64 4 4 (102400)
I0523 23:42:23.761598  5113 net.cpp:137] Memory required for data: 36046000
I0523 23:42:23.761605  5113 layer_factory.hpp:77] Creating layer ip1
I0523 23:42:23.761620  5113 net.cpp:84] Creating Layer ip1
I0523 23:42:23.761628  5113 net.cpp:406] ip1 <- pool3
I0523 23:42:23.761641  5113 net.cpp:380] ip1 -> ip1
I0523 23:42:23.761966  5113 net.cpp:122] Setting up ip1
I0523 23:42:23.761982  5113 net.cpp:129] Top shape: 100 10 (1000)
I0523 23:42:23.761988  5113 net.cpp:137] Memory required for data: 36050000
I0523 23:42:23.762001  5113 layer_factory.hpp:77] Creating layer ip1_ip1_0_split
I0523 23:42:23.762017  5113 net.cpp:84] Creating Layer ip1_ip1_0_split
I0523 23:42:23.762025  5113 net.cpp:406] ip1_ip1_0_split <- ip1
I0523 23:42:23.762035  5113 net.cpp:380] ip1_ip1_0_split -> ip1_ip1_0_split_0
I0523 23:42:23.762048  5113 net.cpp:380] ip1_ip1_0_split -> ip1_ip1_0_split_1
I0523 23:42:23.762115  5113 net.cpp:122] Setting up ip1_ip1_0_split
I0523 23:42:23.762130  5113 net.cpp:129] Top shape: 100 10 (1000)
I0523 23:42:23.762138  5113 net.cpp:129] Top shape: 100 10 (1000)
I0523 23:42:23.762145  5113 net.cpp:137] Memory required for data: 36058000
I0523 23:42:23.762151  5113 layer_factory.hpp:77] Creating layer accuracy
I0523 23:42:23.762166  5113 net.cpp:84] Creating Layer accuracy
I0523 23:42:23.762172  5113 net.cpp:406] accuracy <- ip1_ip1_0_split_0
I0523 23:42:23.762181  5113 net.cpp:406] accuracy <- label_cifar_1_split_0
I0523 23:42:23.762192  5113 net.cpp:380] accuracy -> accuracy
…
